…
    "                              ('fc1', nn.Linear(25088, 4000)),\n",
    "                              ('relu1', nn.ReLU()),\n",
    "                              ('dropout', nn.Dropout(0.2)),\n",
    "                             \n",
    "                              ('fc3', nn.Linear(4000,102)),\n",
    "                              ('output', nn.LogSoftmax(dim=1))\n",
    "                              ]))\n",
    "        \n",
    "    model.classifier = classifier\n",
    "    model.class_to_idx = class_to_idx\n",
    "    model\n",
    "\n",
    "Out\\[6\\]:\n",
    "\n",
    "    VGG(\n",
    "      (features): Sequential(\n",
    "        (0): Conv2d(3, 64, kernel_size=(3, 3), stride=(1, 1), padding=(1, 1))\n",
    "        (1): ReLU(inplace)\n",
    "        (2): Conv2d(64, 64, kernel_size=(3, 3), stride=(1, 1), padding=(1, 1))\n",
    "        (3): ReLU(inplace)\n",
    "        (4): MaxPool2d(kernel_size=2, stride=2, padding=0, dilation=1, ceil_mode=False)\n",
    "        (5): Conv2d(64, 128, kernel_size=(3, 3), stride=(1, 1), padding=(1, 1))\n",
    "        (6): ReLU(inplace)\n",
    "        (7): Conv2d(128, 128, kernel_size=(3, 3), stride=(1, 1), padding=(1, 1))\n",
    "        (8): ReLU(inplace)\n",
    "        (9): MaxPool2d(kernel_size=2, stride=2, padding=0, dilation=1, ceil_mode=False)\n",
    "        (10): Conv2d(128, 256, kernel_size=(3, 3), stride=(1, 1), padding=(1, 1))\n",
    "        (11): ReLU(inplace)\n",
    "        (12): Conv2d(256, 256, kernel_size=(3, 3), stride=(1, 1), padding=(1, 1))\n",
    "        (13): ReLU(inplace)\n",
    "        (14): Conv2d(256, 256, kernel_size=(3, 3), stride=(1, 1), padding=(1, 1))\n",
    "        (15): ReLU(inplace)\n",
    "        (16): MaxPool2d(kernel_size=2, stride=2, padding=0, dilation=1, ceil_mode=False)\n",
    "        (17): Conv2d(256, 512, kernel_size=(3, 3), stride=(1, 1), padding=(1, 1))\n",
    "        (18): ReLU(inplace)\n",
    "        (19): Conv2d(512, 512, kernel_size=(3, 3), stride=(1, 1), padding=(1, 1))\n",
    "        (20): ReLU(inplace)\n",
    "        (21): Conv2d(512, 512, kernel_size=(3, 3), stride=(1, 1), padding=(1, 1))\n",
    "        (22): ReLU(inplace)\n",
    "        (23): MaxPool2d(kernel_size=2, stride=2, padding=0, dilation=1, ceil_mode=False)\n",
    "        (24): Conv2d(512, 512, kernel_size=(3, 3), stride=(1, 1), padding=(1, 1))\n",
    "        (25): ReLU(inplace)\n",
    "        (26): Conv2d(512, 512, kernel_size=(3, 3), stride=(1, 1), padding=(1, 1))\n",
    "        (27): ReLU(inplace)\n",
    "        (28): Conv2d(512, 512, kernel_size=(3, 3), stride=(1, 1), padding=(1, 1))\n",
    "        (29): ReLU(inplace)\n",
    "        (30): MaxPool2d(kernel_size=2, stride=2, padding=0, dilation=1, ceil_mode=False)\n",
    "      )\n",
    "      (classifier): Sequential(\n",
    "        (fc1): Linear(in_features=25088, out_features=4000, bias=True)\n",
    "        (relu1): ReLU()\n",
    "        (dropout): Dropout(p=0.2)\n",
    "        (fc3): Linear(in_features=4000, out_features=102, bias=True)\n",
    "        (output): LogSoftmax()\n",
    "      )\n",
    "    )\n",
    "\n",
    "In \\[7\\]:\n",
    "\n",
    "    # TODO: Train a model with a pre-trained network\n",
    "\n",
    "    criterion = nn.NLLLoss()\n",
    "    optimizer = optim.Adam(model.classifier.parameters(), lr=0.001)\n",
    "\n",
    "In \\[9\\]:\n",
    "\n",
    "    epochs = 3\n",
…
